…
,"trusted":true,"colab":{"base_uri":"https://localhost:8080/"},"id":"ef3hT8W2Sz5k","executionInfo":{"status":"ok","timestamp":1655360954015,"user_tz":-480,"elapsed":1162,"user":{"displayName":"李育得","userId":"02296319474474746696"}},"outputId":"a5f079ff-cc65-425c-ed38-6d44e1d569db"},"execution_count":39,"outputs":[{"output_type":"stream","name":"stdout","text":["----------------------------------------------------------------\n","        Layer (type)               Output Shape         Param #\n","================================================================\n","            Conv2d-1          [-1, 3, 224, 224]              30\n","            Conv2d-2         [-1, 16, 224, 224]              64\n","       BatchNorm2d-3         [-1, 16, 224, 224]              32\n","              ReLU-4         [-1, 16, 224, 224]               0\n","            Conv2d-5         [-1, 16, 224, 224]             160\n","            Conv2d-6         [-1, 16, 224, 224]             272\n","       BatchNorm2d-7         [-1, 16, 224, 224]              32\n","              ReLU-8         [-1, 16, 224, 224]               0\n","            Conv2d-9         [-1, 16, 224, 224]             160\n","           Conv2d-10         [-1, 32, 224, 224]             544\n","      BatchNorm2d-11         [-1, 32, 224, 224]              64\n","             ReLU-12         [-1, 32, 224, 224]               0\n","           Conv2d-13         [-1, 32, 224, 224]             320\n","           Conv2d-14         [-1, 64, 224, 224]           2,112\n","      BatchNorm2d-15         [-1, 64, 224, 224]             128\n","             ReLU-16         [-1, 64, 224, 224]               0\n","           Conv2d-17         [-1, 64, 224, 224]             640\n","           Conv2d-18         [-1, 64, 224, 224]           4,160\n","      BatchNorm2d-19         [-1, 64, 224, 224]             128\n","             ReLU-20         [-1, 64, 224, 224]               0\n","           Conv2d-21         [-1, 64, 224, 224]             640\n","           Conv2d-22        [-1, 256, 224, 224]          16,640\n","      BatchNorm2d-23        [-1, 256, 224, 224]             512\n","             ReLU-24        [-1, 256, 224, 224]               0\n","           Conv2d-25        [-1, 256, 224, 224]           2,560\n","           Conv2d-26        [-1, 256, 224, 224]          65,792\n","      BatchNorm2d-27        [-1, 256, 224, 224]             512\n","             ReLU-28        [-1, 256, 224, 224]               0\n","AdaptiveAvgPool2d-29            [-1, 256, 1, 1]               0\n","           Linear-30                   [-1, 11]           2,827\n","================================================================\n","Total params: 98,329\n","Trainable params: 98,329\n","Non-trainable params: 0\n","----------------------------------------------------------------\n","Input size (MB): 0.57\n","Forward/backward pass size (MB): 981.15\n","Params size (MB): 0.38\n","Estimated Total Size (MB): 982.10\n","----------------------------------------
…
